…
m","name":"stdout","text":["Model: \"model_11\"\n","__________________________________________________________________________________________________\n"," Layer (type)                   Output Shape         Param #     Connected to                     \n","==================================================================================================\n"," input_12 (InputLayer)          [(None, 500, 1)]     0           []                               \n","                                                                                                  \n"," layer_normalization_88 (LayerN  (None, 500, 1)      2           ['input_12[0][0]']               \n"," ormalization)                                                                                    \n","                                                                                                  \n"," multi_head_attention_44 (Multi  (None, 500, 1)      7169        ['layer_normalization_88[0][0]', \n"," HeadAttention)                                                   'layer_normalization_88[0][0]'] \n","                                                                                                  \n"," dropout_99 (Dropout)           (None, 500, 1)       0           ['multi_head_attention_44[0][0]']\n","                                                                                                  \n"," tf.__operators__.add_88 (TFOpL  (None, 500, 1)      0           ['dropout_99[0][0]',             \n"," ambda)                                                           'input_12[0][0]']               \n","                                                                                                  \n"," layer_normalization_89 (LayerN  (None, 500, 1)      2           ['tf.__operators__.add_88[0][0]']\n"," ormalization)                                                                                    \n","                                                                                                  \n"," conv1d_88 (Conv1D)             (None, 500, 4)       8           ['layer_normalization_89[0][0]'] \n","                                                                                                  \n"," dropout_100 (Dropout)          (None, 500, 4)       0           ['conv1d_88[0][0]']              \n","                                                                                                  \n"," conv1d_89 (Conv1D)             (None, 500, 1)       5           ['dropout_100[0][0]']            \n","                                                                                                  \n"," tf.__operators__.add_89 (TFOpL  (None, 500, 1)      0           ['conv1d_89[0][0]',              \n"," ambda)                                                           'tf.__operators__.add_88[0][0]']\n","                                                                                                  \n"," layer_normalization_90 (LayerN  (None, 500, 1)      2           ['tf.__operators__.add_89[0][0]']\n"," ormalization)                                                                                    \n","                                                                                                  \n"," multi_head_attention_45 (Multi  (None, 500, 1)      7169        ['layer_normalization_90[0][0]', \n"," HeadAttention)                                                   'layer_normalization_90[0][0]'] \n","                                                                                                  \n"," dropout_101 (Dropout)          (None, 500, 1)       0           ['multi_head_attention_45[0][0]']\n","                                                                                                  \n"," tf.__operators__.add_90 (TFOpL  (None, 500, 1)      0           ['dropout_101[0][0]',            \n"," ambda)                                                           'tf.__operators__.add_89[0][0]']\n","                                                                                                  \n"," layer_normalization_91 (LayerN  (None, 500, 1)      2           ['tf.__operators__.add_90[0][0]']\n"," ormalization)                                                                                    \n","                                                                                                  \n"," conv1d_90 (Conv1D)             (None, 500, 4)       8           ['layer_normalization_91[0][0]'] \n","                                                                                                  \n"," dropout_102 (Dropout)          (None, 500, 4)       0           ['conv1d_90[0][0]']              \n","                                                                                                  \n"," conv1d_91 (Conv1D)             (None, 500, 1)       5           ['dropout_102[0][0]']            \n","                                                                                                  \n"," tf.__operators__.add_91 (TFOpL  (None, 500, 1)      0           ['conv1d_91[0][0]',              \n"," ambda)                                                           'tf.__operators__.add_90[0][0]']\n","                                                                                                  \n"," layer_normalization_92 (LayerN  (None, 500, 1)      2           ['tf.__operators__.add_91[0][0]']\n"," ormalization)                                                                                    \n","                                                                                                  \n"," multi_head_attention_46 (Multi  (None, 500, 1)      7169        ['layer_normalization_92[0][0]', \n"," HeadAttention)                                                   'layer_normalization_92[0][0]'] \n","                                                                                                  \n"," dropout_103 (Dropout)          (None, 500, 1)       0           ['multi_head_attention_46[0][0]']\n","                                                                                                  \n"," tf.__operators__.add_92 (TFOpL  (None, 500, 1)      0           ['dropout_103[0][0]',            \n"," ambda)                                                           'tf.__operators__.add_91[0][0]']\n","                                                                                                  \n"," layer_normalization_93 (LayerN  (None, 500, 1)      2           ['tf.__operators__.add_92[0][0]']\n"," ormalization)                                                                                    \n","                                                                                                  \n"," conv1d_92 (Conv1D)             (None, 500, 4)       8           ['layer_normalization_93[0][0]'] \n","                                                                                                  \n"," dropout_104 (Dropout)          (None, 500, 4)       0           ['conv1d_92[0][0]']              \n","                                                                                                  \n"," conv1d_93 (Conv1D)             (None, 500, 1)       5           ['dropout_104[0][0]']            \n","                                                                                                  \n"," tf.__operators__.add_93 (TFOpL  (None, 500, 1)      0           ['conv1d_93[0][0]',              \n"," ambda)                                                           'tf.__operators__.add_92[0][0]']\n","                                                                                                  \n"," layer_normalization_94 (LayerN  (None, 500, 1)      2           ['tf.__operators__.add_93[0][0]']\n"," ormalization)                                                                                    \n","                                                                                                  \n"," multi_head_attention_47 (Multi  (None, 500, 1)      7169        ['layer_normalization_94[0][0]', \n"," HeadAttention)                                                   'layer_normalization_94[0][0]'] \n","                                                                                                  \n"," dropout_105 (Dropout)          (None, 500, 1)       0           ['multi_head_attention_47[0][0]']\n","                                                                                                  \n"," tf.__operators__.add_94 (TFOpL  (None, 500, 1)      0           ['dropout_105[0][0]',            \n"," ambda)                                                           'tf.__operators__.add_93[0][0]']\n","                                                                                                  \n"," layer_normalization_95 (LayerN  (None, 500, 1)      2           ['tf.__operators__.add_94[0][0]']\n"," ormalization)                                                                                    \n","                                                                                                  \n"," conv1d_94 (Conv1D)             (None, 500, 4)       8           ['layer_normalization_95[0][0]'] \n","                                                                                                  \n"," dropout_106 (Dropout)          (None, 500, 4)       0           ['conv1d_94[0][0]']              \n","                                                                                                  \n"," conv1d_95 (Conv1D)             (None, 500, 1)       5           ['dropout_106[0][0]']            \n","                                                                                                  \n"," tf.__operators__.add_95 (TFOpL  (None, 500, 1)      0           ['conv1d_95[0][0]',              \n"," ambda)                                                           'tf.__operators__.add_94[0][0]']\n","                                                                                                  \n"," global_average_pooling1d_11 (G  (None, 500)         0           ['tf.__operators__.add_95[0][0]']\n"," lobalAveragePooling1D)                                                                           \n","                                                                                                  \n"," dense_22 (Dense)               (None, 128)          64128       ['global_average_pooling1d_11[0][\n","                                                                 0]']                             \n","                                                                                                  \n"," dropout_107 (Dropout)          (None, 128)          0           ['dense_22[0][0]']               \n","                                                                                                  \n"," dense_23 (Dense)               (None, 1)            129         ['dropout_107[0][0]']            \n","                                                                                                  \n","==================================================================================================\n","Total params: 93,001\n","Trainable params: 93,001\n","Non-trainable params: 0\n","_________________________________________________________________
…
